tata_lstm_model.pth (torch, 71989 bytes, 5 tensors)

lstm.weight_ih_l0 f4 [256, 1]
00000000: 2ef8 2e3d e83a 3c3d f158 013d c2d1 ce3c
00000010: 604d 583d 3226 a23d cad3 f9bc 8c49 6ebd
00000020: 84a4 023e c999 77bd 7d30 61bd c33a f1bc
00000030: b080 f6bd 04d0 c63d 10f3 53bb 9738 59bd
00000040: e4b6 18bd ca7d ee3d 09c1 40bd bfd8 e4bc
00000050: 072f a4bd 91a0 93bd 42e6 0e3d 94e7 04be
00000060: f66c 943d f11c 183e dff1 d73d e2a6 71bd
00000070: d620 f3bd 42b8 903d 7c91 2cbc 4d44 83bd
00000080: 20e7 da3d 43d1 243e 4e94 d73d 5505 4d3b
00000090: c337 d5bd ef87 f5bc 6bf1 dd3d 73dd 193d
000000a0: b20b f13b 62cc 1a3e 9567 c23d a804 893c
000000b0: 74cd 2e3e e73c 8dbd 9507 b23d 1b74 cebc
000000c0: 08fe 11bd 39c4 013d c3dc d53c 6844 513d
000000d0: 6c69 91bd 701f 3e3d 2998 6abd 7ada e2bc
000000e0: 711c 0bbc 5383 253e 5622 d2bd fdd0 7abd
000000f0: ff15 e23d a3a8 73bb 0cf2 8f3c a1bb 40bc
00000100: 922b 23bd da5e aa3d 3a1e b5bc ea02 e23d
00000110: 227b 69bc 0667 93bd ceb0 8b3d 5baf ae3c
00000120: e2e5 103e 2c7d 58bd a080 c83d 8bbe 2ebd
00000130: 89b8 28bd 5659 af3c 457f 62bc c6aa eebd
00000140: 71d0 943d ff23 e93d 7041 03bd 5aa3 2c3d
00000150: 246a 4cbd b1f5 263e 3663 91bd bb62 08bd
00000160: 86d7 863d 1080 81bd 63d2 2d3d 8bbf b7bd
00000170: 5001 b7bd 693c b6bc 9774 6a3c cfd9 91bd
00000180: 2a52 ce3b e0e2 d2bb 2f5b 243e d145 d9bc
00000190: d930 a1bd 585a 623b 51ef 113e 88a6 64bd
000001a0: 0a24 1a3e 1e89 023e 4e3b 053e e4bd 41bd
000001b0: e4d1 e33d 9ec1 d4bc cedc dc3b 7d0e 15bd
000001c0: a096 2b3e 5a86 9e3c dc6e 69b9 0246 883d
000001d0: f63d 063e 243b 80bc 09ab 0b3e 5cc4 073d
000001e0: 6dd6 b13d b873 39bd 181b 10be 2a47 233e
000001f0: 4bd8 13bd 1142 033d e8f4 07bd b977 c6bd
00000200: f317 b33d e1d4 babd d3e7 9cba fea5 07bd
00000210: f5e9 073e 1038 0fbe 17f9 52bd 4835 103e
00000220: 6b87 d6bc 7aea 653a c097 bcbd 71ca 2d3e
00000230: 387d ccbd d8fa 6e3d 1d37 943c 2fd8 363d
00000240: c969 74bc 9da3 a63d 232e 1c3e f4a1 65bd
00000250: 8ca6 08bd 979c 0bbe 5f19 da3d fae5 ad3d
00000260: 4e3e d23d cfdf fdbc 7bfa 003c d4d1 39bb
00000270: 9fa5 9cbd a1ff 813c 9443 993d b0e0 0e3e
00000280: e22d 0a3e 151a 063e f38b b83d 86f4 03be
00000290: cb04 bfbd f1bf 57bd 5bb3 833d 41f6 fa3d
000002a0: 2e9f 943b 4539 653d a0a3 55bd c806 ffbd
000002b0: 9573 c43d 6b70 7d3d 53e8 b03c e7a3 0f3d
000002c0: 4897 abbd 6802 c23d 3e83 8bbd b482 f7bc
000002d0: 7477 b3bd 0985 cd3d cc20 823c 7449 d8bd
000002e0: 5854 a0bd 98a9 10bc 1557 1cbd c04b d63c
000002f0: 9696 92bd 3115 95bd 0314 11be c8ee f03c
00000300: 9136 ab3b cd5e f53d 0bbc d53d 27fc 0cbb
00000310: 8a3f f03d d6ca de3d ba93 90bc 518b 713d
00000320: 94bb 043e cf3a 713d dbcc ce3d b728 c23d
00000330: 1559 513d 6d1b ad3d cbd5 0cbd d4c5 0abd
00000340: 7dc7 9f3d de08 333c 899a 2d3e 8228 94bc
00000350: e165 92bd 3b24 d83d 445e bdbc 3957 863d
00000360: 7d94 ee3d 0946 28bd ebac 1bbd 4452 84bd
00000370: 12a6 a3bd 5170 64bd 6bd5 cf3d 6e3d f33d
00000380: ef23 053e 3340 243e 997a 173e 687d 173d
00000390: 13fe bd3d cfe8 453c 73e5 05bd ff36 323e
000003a0: 2d6a c43d ac6c 313d 4fb4 02bd 346a 6b3c
000003b0: 63be 033e ea24 4cbd 768d 1b3d 1fd0 153d
000003c0: 63da 85bd 85f8 a6bc 1fc4 a1bd 9edb 8ebd
000003d0: 204a f5b9 2c43 4bbd 21fa 273e e390 9fbc
000003e0: 1e90 733d 7ab7 f1bb fe21 d83c e85f 633d
000003f0: beb6 803d 992c 0a3d bead 6e3d db58 403d
0.04271715 0.045954615 0.03157896 0.025246505 0.052808166 0.079174414 -0.030496497 -0.05817561
0.1275807 -0.060449395 -0.054977883 -0.029446965 -0.12036264 0.097076446 -0.0032340921 -0.053032484
-0.037283793 0.11645086 -0.047059093 -0.027935384 -0.08016782 -0.0720836 0.03488756 -0.12978965
0.07247345 0.1485479 0.1054418 -0.058997042 -0.11871497 0.070663944 -0.010532733 -0.06409512
0.10688615 0.16095452 0.10526334 0.0031283696 -0.10411026 -0.029972045 0.108370624 0.037564706
0.0073561305 0.15117028 0.09492413 0.016725853 0.17070562 -0.06896382 0.086928524 -0.025201848
-0.035642654 0.031681273 0.026106244 0.051090628 -0.07100186 0.0464167 -0.057274017 -0.027692068
-0.008490668 0.16163377 -0.10260455 -0.061234463 0.11039352 -0.0037179373 0.017571472 -0.011763484
-0.039836474 0.08318873 -0.02210914 0.11035712 -0.014250549 -0.071973845 0.06820832 0.02132385
0.14150193 -0.05285375 0.09790158 -0.042662185 -0.04119161 0.021404903 -0.013824289 -0.11653666
0.072663195 0.11383819 -0.032044828 0.04214797 -0.04990591 0.16304661 -0.07099001 -0.03329728
0.065840766 -0.06323254 0.04243697 -0.08972081 -0.08935797 -0.022245603 0.014310024 -0.07121622
0.006296416 -0.006435737 0.16050409 -0.026522549 -0.07870645 0.0034538712 0.14251448 -0.05582288
0.1505281 0.12747619 0.13010904 -0.047300234 0.11124018 -0.02597123 0.006740189 -0.03639077
0.16756678 0.019351173 -0.0002226191 0.06653978 0.13109574 -0.0156532 0.13639463 0.033146247
0.086834766 -0.045276374 -0.14072835 0.15945116 -0.036094945 0.032045428 -0.033192545 -0.09690804
0.08744802 -0.09122635 -0.0011970944 -0.033117287 0.13272841 -0.1398623 -0.05150708 0.14082825
-0.02618762 0.00087705965 -0.092086315 0.16971757 -0.09984821 0.058344692 0.018092686 0.044639762
-0.014917799 0.081366755 0.15251975 -0.056062654 -0.033361956 -0.13633953 0.106493704 0.0849113
0.1026579 -0.03099051 0.007872219 -0.0028353827 -0.07648777 0.015868964 0.07483593 0.13952899
0.13494065 0.13095887 0.09011068 -0.12886247 -0.09327086 -0.052673284 0.06430694 0.122540005
0.0045355773 0.05596282 -0.052157998 -0.12452465 0.09592358 0.06187479 0.021595156 0.03506842
-0.08378464 0.09473115 -0.06812142 -0.030213691 -0.08763018 0.1003514 0.01588478 -0.10560885
-0.07828587 -0.008829497 -0.038168985 0.026159167 -0.07157628 -0.072794326 -0.1416779 0.029410735
0.0052250107 0.119809724 0.10436257 -0.00215126 0.11730869 0.10878532 -0.017648567 0.058970753
0.1296218 0.058893975 0.10097667 0.09480422 0.051110346 0.08452497 -0.034383576 -0.03388007
0.07801721 0.010927407 0.16953482 -0.018085722 -0.07148338 0.105537854 -0.023116238 0.06559605
0.11649416 -0.041082416 -0.038006704 -0.064610034 -0.0799066 -0.055771176 0.10148128 0.11876951
0.13001989 0.16040115 0.14792861 0.03698483 0.092769764 0.012079432 -0.032689523 0.17403792
0.09590564 0.04331653 -0.031910237 0.0143685825 0.12865596 -0.04983989 0.037976705 0.036575433
-0.065357946 -0.020382175 -0.07898735 -0.069754824 -0.0004678527 -0.049624607 0.1640401 -0.019478267
0.059463613 -0.0073766084 0.026383396 0.055511385 0.06284855 0.033733938 0.058271162 0.04695974

lstm.weight_hh_l0 f4 [256, 64]
00000000: 57f4 3b3d 9ea6 bbbd a685 3dbd 4b75 6ebd
00000010: 2513 b7bd 23f0 fe3d 3c8b d6bd 77e0 f9bd
00000020: 789d e83c 7bc1 0bbd 72c3 88bd de41 283d
00000030: 959a e3bd 8f46 a7bd d435 2e3c a914 913d
00000040: 67d6 7cbc f735 cabd f90d 29bd fc75 84bd
00000050: 6374 783d 4298 653d 6ddd f7bd 70dd ec3d
00000060: 7734 453d aea3 033e 72ce 663d 3c0c 1a3d
00000070: 595a 4cbd 03cb e3bc bae5 b43d 9ab0 1f3d
00000080: 1716 94bd 4bfb d83d 1257 513d f302 83bd
00000090: 0e73 873d 9b39 b83d a4fe 3bbd 6e7e da3a
000000a0: 3239 1fbc c760 18bb afa0 a23d b03e 1d3d
000000b0: af1c 153d a508 7dbd 8b68 75bd 4125 4dbd
000000c0: 0e85 323d 6abd 0bbc ad61 a23d 0964 583d
000000d0: 4096 debb e024 a93d c32c 9ebd 5726 d4bd
000000e0: 68b4 a33d c4e6 8a3d ce0f c1bd 0722 903d
000000f0: ab18 e33c 0b8b e13d 0d55 e03d 4eaf b739
00000100: a043 a5bd 79e1 dd3d cbb2 9cbb c367 b6bd
00000110: 335c f03d 02bb c03d 0ec0 d1bd fe0c cbbd
00000120: 7470 c8bd 4af9 553d d881 f8bc f416 c93d
00000130: 7831 99bd 7453 c8bd 0825 babd f299 893d
00000140: e96d 293d 2b7a 62bd 996e 5e3c 68da 813d
00000150: ff1a d43d 0da2 99bd 3c35 113d 02e2 013e
00000160: 0d4c a1bd 267f af3c 9462 c6bd 8e7a 55bd
00000170: e707 f03c b5e8 04be f159 83bd cf40 95bc
00000180: be2b b4bd 13c1 fabd 3887 9d3d 3efa ad3d
00000190: b9f3 c6bc 2f10 babc ff6e 6cbd 39d7 1c3d
000001a0: ccd5 88bd 1f1c 073e a607 8d3d 5a92 8f3d
000001b0: 4558 9c3d cbad 933d 275d ab3d 614c 48bc
000001c0: 575e c0bd 09b3 83bd 91a5 8e3d 670c 323d
000001d0: 09d3 efbd faf5 9fbd 5f7f 23bc 60ab e13b
000001e0: ad3f 34bb 34ee bebd 5cbe 2c3c 3a7a 89bd
000001f0: 57c9 a83d e64b b43c 5f32 9d3d 1e53 9d3d
00000200: 86b7 b9bd 9d69 19bd 58ad 193d 45b4 bd3b
00000210: d558 0d3d 939e b5bd 5cbc 67bd ecf2 8e3b
00000220: 6190 a6bd 8f3c 093d 95c3 13be 8350 133e
00000230: e2f9 89bd 6e87 81bd df15 6e3d c099 1d3e
00000240: 1ce0 203d ced0 4d3c 2ad7 cb3d 0d2f c73d
00000250: 5bd4 ccbd 95b6 903c b6e3 713d 533d 903d
00000260: 1431 8d3d 42b2 c7bc e274 63bd cc02 173c
00000270: f110 57bd a9be 3fbd af41 46bd 98a7 d63d
00000280: 9603 90bd 6b28 cb3d 3741 e33d 5cbb c43d
00000290: 12fd 4ebc f448 24bd 5b9f edbd 2d39 093e
000002a0: 3972 f1bd 0896 3e3d 67cd cdbd c4d9 0d3d
000002b0: c7dc 113d a44f e63d 624b 84bd e5cc 163e
000002c0: 821d edbc 72ca 5fbd 7b08 fe3c 10ed 5b3c
000002d0: daa8 473c 4be4 32bc ce60 ebbb 67b4 993d
000002e0: 76e4 493d af0f d13d 62e6 c5bc b775 03bc
000002f0: 9438 a73c 9681 37bd 67b7 943d 5589 b1bd
00000300: cd04 a03b 97be a93c 7ab0 4e3d 49a0 c93c
00000310: 7e07 28bd b529 433d 6bf6 10bd 849c 2abd
00000320: 1662 4c3d 7020 00be 9bb8 f83c 403d be3d
00000330: 8ecb 14be 1217 483d 2f94 fbbb bf3d 053e
00000340: f231 9dbd 5a0b 003e 24de e53c 4b89 09be
00000350: cf81 d63d bf8b 963c a595 073e 087d 113e
00000360: 88ee 02bc e856 be3d 7a06 e2bd 69f5 fbbd
00000370: 4bb5 e0bc cf99 a2bc be16 d63d 1240 163e
00000380: 701e fe3d 1a3a a03d b9f5 033e 37d9 04be
00000390: aa02 7e3d d30c e4bd ed2d 203c 5c28 113e
000003a0: 2382 b2bc d9d1 d13d 60e7 8cbc a7c0 a5bd
000003b0: 8bc5 233e 05ae 943c 3658 d7bc 8025 0dbd
000003c0: 6609 c8bd 6a3c 8b3d ef43 94bd 2b40 d9bb
000003d0: 753c e5bc df98 ef3d 38a4 f9bd e1a5 e4bd
000003e0: 3f65 90bd 3604 76bb 7df5 3c3d 1e6b e7bd
000003f0: 2091 94bd 4478 b13d 58df 813d 63be 0d3e
0.045887318 -0.09162639 -0.046270035 -0.058217328 -0.089391984 0.12448146 -0.104757756 -0.122010164
0.0283954 -0.034120064 -0.06677903 0.04107844 -0.111134686 -0.08167755 0.010632951 0.07084019
-0.015431977 -0.09873574 -0.04127309 -0.06467816 0.06065787 0.056053407 -0.121027805 0.11565673
0.048145737 0.12855408 0.056349225 0.037609324 -0.04989085 -0.027806764 0.08832879 0.03898678
-0.07230776 0.10594805 0.051108427 -0.06397047 0.06613742 0.08995362 -0.04589714 0.0016669759
-0.009718226 -0.0023251043 0.07940804 0.03838986 0.036404308 -0.061775822 -0.059914153 -0.050084356
0.043583922 -0.008529047 0.079287864 0.052829776 -0.0067928135 0.082589865 -0.07723381 -0.10358875
0.07993394 0.06782296 -0.09426843 0.0703774 0.027721724 0.110128485 0.10953722 0.00035035092
-0.08069539 0.10834021 -0.004782056 -0.0890651 0.117363356 0.09410669 -0.1024171 -0.099145874
-0.09787074 0.052239694 -0.030335352 0.09818831 -0.074801385 -0.097815424 -0.090890944 0.06718816
0.041364584 -0.05529229 0.013576173 0.06340486 0.103567116 -0.07501612 0.03545116 0.12683871
-0.07875834 0.021422934 -0.09686771 -0.05211883 0.029300643 -0.12979396 -0.06413639 -0.01821938
-0.08797406 -0.12243857 0.076918066 0.084949955 -0.024286138 -0.022712795 -0.05772304 0.03829119
-0.066814035 0.13194321 0.068862244 0.07010336 0.076340236 0.07210883 0.08367377 -0.012225241
-0.09392994 -0.064306326 0.06965173 0.04346886 -0.11710174 -0.07810588 -0.009979098 0.0068868846
-0.0027503774 -0.093227774 0.010543432 -0.06712766 0.082415275 0.022008847 0.07675623 0.07681869
-0.090682074 -0.037454236 0.03751883 0.005789312 0.034508545 -0.08868136 -0.056576118 0.0043624546
-0.08133007 0.03350502 -0.14430077 0.14386182 -0.067371145 -0.06324659 0.058126327 0.15390682
0.039276227 0.01256199 0.09953149 0.09725771 -0.10001441 0.017665187 0.059055053 0.07042947
0.068941265 -0.024376992 -0.05553139 0.009216975 -0.05250639 -0.046812687 -0.048402485 0.10481185
-0.07031934 0.099198185 0.11096423 0.096060485 -0.012633579 -0.040108636 -0.1160266 0.13400717
-0.11789364 0.0465298 -0.10048943 0.034631506 0.03561094 0.11245659 -0.06459691 0.14726599
-0.028944734 -0.054636426 0.031009903 0.013423219 0.012186253 -0.010918687 -0.007183171 0.07505112
0.049290143 0.102080695 -0.024157707 -0.008023671 0.02041272 -0.044801317 0.07261544 -0.08668772
0.004883385 0.020720763 0.05046127 0.024612563 -0.04102277 0.047647197 -0.035391252 -0.04165317
0.04989823 -0.12512374 0.030361464 0.09289026 -0.14530775 0.048850127 -0.007677577 0.13011836
-0.07675542 0.1250433 0.028060026 -0.1343128 0.10473978 0.018377183 0.13240679 0.14207852
-0.007991441 0.0929392 -0.110363916 -0.12302668 -0.027430197 -0.019848732 0.104535565 0.14672878
0.12408149 0.07823582 0.12886705 -0.12973486 0.06201426 -0.111352585 0.009776575 0.14175552
-0.02179057 0.102451034 -0.017200172 -0.08093386 0.15993325 0.018149385 -0.02628718 -0.03445959
-0.097674176 0.067986324 -0.0723952 -0.006629964 -0.02798293 0.1169908 -0.12189525 -0.111644514
-0.07050561 -0.003753913 0.046132553 -0.11299728 -0.07254243 0.08665517 0.063414276 0.13842158

lstm.bias_ih_l0 f4 [256]
00000000: 9ab7 f33c f0a1 e3bd 81da fa3d 5e8e 8dbd
00000010: 7c1e 393d f412 ab3d e5bc cf3d ddd0 b6bd
00000020: 7c00 4aba fd3e a9bc 64b7 8bbd 224c 8b3d
00000030: 5070 84bd a076 963d ba11 aa3d 9267 aebd
00000040: 45fb 30bc df19 38bd cea2 20bd 99b7 e13b
00000050: cd80 e23d 8a9b d03d dff0 973d 090b 633d
00000060: 4878 143e 3113 613d eecd 833b a570 b73c
00000070: e86f 5b3c 7574 74bd 42f2 a03d 47b1 e73d
00000080: e841 9f3d 01a8 b93c b6e7 903d 2e32 5fbc
00000090: b488 b43c abac 98bd 8867 a83c ae68 0b3e
000000a0: 5496 84bd b671 be3d bc12 043d 1147 7c3d
000000b0: 8ef1 a93d 2986 2c3d 64f4 83bd a553 5d3b
000000c0: e9e5 08bd 3e4e 443d 29d2 8b3d 0adf da3c
000000d0: aa44 f5bd ccf3 ad3c 897e 7bbd c902 0e3d
000000e0: a5ba c03d 6f23 ce3b aa23 a73d b320 b23d
000000f0: e904 853a 9639 aebd 1abe bc3c 9f93 a4bd
00000100: c52d 3e3d 988c 73bd add0 23bd 38b4 aebb
00000110: 08a7 7fbd fbac 283d 712f 7abd 3727 873d
00000120: 31ee 04be 2ee4 c2bd c065 d1bd 2c6a 873a
00000130: d48f 9b3d 6fe9 43bc 10bf 1f3d 2036 e6bd
00000140: 5395 14bd 6b20 0b3e 6d1e b03c a98b 253d
00000150: 880e e7bd b4f4 dd3b 9ec6 cc3b 4716 a13d
00000160: 349f cf3d e60e a6bc 2ec6 01be 481c 883c
00000170: b059 67bd 471d d13d e746 f73c 573d a13d
00000180: a362 b23c 0047 223d f5c6 a8bd dfad 0a3e
00000190: d991 96bd 29a8 fc3d ae6b 19bd 18dd f03d
000001a0: d625 1b3d 5103 a23d 0865 4a3d 5d11 5e3d
000001b0: e449 0f3e 737d 92bc 389c 2f3d ad25 1abd
000001c0: 313e 113d 4b09 b53d 500e 30bd 8beb b43c
000001d0: efd3 7c3c 0d5a 7c3d 54be a83d 21c7 1b3c
000001e0: 6780 b1bc 36c8 f23c 49a3 9bbd 25e6 903c
000001f0: 84bf 3ebd 454e f6bd 0b6b c63d 1c67 b73d
00000200: fb61 a4bd 57b8 f13d 301b d43d 078e a73d
00000210: 3c2a 62bd 0309 f8bd 904b 8b3c 879d 3a3d
00000220: 17fe b73d b6fd 8b3d 6196 47bd a13f bd3d
00000230: b3e3 adbd 4526 febc df3f 4d3d ea15 86bc
00000240: 5cfd ee3d 272b 663d 342a a23d fd1f 93bd
00000250: d771 d13d 0a40 b2bd 30ad 473d 3f5f afbd
00000260: 6ebe 9cbd 1365 e2bd 33d5 d6bd 132a ca3d
00000270: 88fe e1bd 686a 5a3d ec4a 4c3d b97b 853c
00000280: ea49 f13c b305 fa3d b4bb a73d 08b8 d1bd
00000290: 01d1 853d c5ea 97bd 4bfc a1bc a5a3 0e3d
000002a0: 1bcc fd3d 878e 8d3c b03e 693d d0fb 913c
000002b0: 40b2 0fbd 18a8 e4bc 15ef db3d 9751 bf3d
000002c0: 7242 c43d 25b3 c6bc 48e9 ccbd 606b 4f3d
000002d0: f1e2 033e 75ca 8f3d 11d5 6cbd 4061 833d
000002e0: db13 b03d 65bf 3cbd 9be1 0bbd 7e39 8cbb
000002f0: 83df bd3c b7ad 393d e825 82bd ca0f de3d
00000300: 603e f73c 1293 c03d a103 bbbc 49d7 9b3c
00000310: fc65 053d 377e 753b 83a1 1bbd 0139 c5bc
00000320: 01bc 6bbd d692 8abd 2fa3 d7bd 7196 463d
00000330: 90c4 ab3d fea3 b4bc 24f5 31bd d0bb fa3c
00000340: 2b72 d63c dd5d 1b3e 5b49 84bd f0c0 de3d
00000350: 393b 1a3c 174f 81bc d217 113e 782f 09bc
00000360: 2ab6 88bd e601 0a3d 1a53 6dbb 482d a73c
00000370: e605 0e3c 3a27 d3bc 56cb dcbd 74d1 c6bd
00000380: aadc c0bd b875 d63d 9d70 b53d 303c bc3c
00000390: dc48 f1bd a1c3 dd3d e4c8 38bb 1a83 043e
000003a0: ead9 c43c 26b3 4bbd b706 a3bd 0126 203e
000003b0: 7777 223e cfc9 9c3c 980a abbd ac1d 4ebd
000003c0: 7aae 543d bd24 b13d d4a2 18bd 611c 08bc
000003d0: a563 7b3d 1daf 84bb 7ca8 e1bb 7682 033d
000003e0: aee4 0ebc 306c 31bd 2b0e 06be ea8a acbd
000003f0: c5d9 ba3d 1cd1 a2bd b5ce 233d a237 553d
0.029750634 -0.111148715 0.122487076 -0.0691192 0.045195088 0.083532244 0.10143451 -0.08926556
-0.00077057607 -0.020659918 -0.06822088 0.068016306 -0.064667344 0.07346845 0.08304162 -0.08515848
-0.010802095 -0.044946548 -0.039217763 0.0068883416 0.11059723 0.10185917 0.074189894 0.055430446
0.14499009 0.054949943 0.0040223515 0.02239258 0.01339338 -0.059681375 0.07858707 0.1131311
0.077762425 0.022663118 0.07075445 -0.013622804 0.022037841 -0.07454809 0.02055718 0.13614151
-0.06473985 0.092990324 0.03224443 0.06159121 0.08298026 0.042120133 -0.06443098 0.003377178
-0.033422384 0.04792618 0.06827194 0.026717681 -0.11975987 0.021234415 -0.06139997 0.034670625
0.094105996 0.006290845 0.08161099 0.08697643 0.0010148558 -0.085070774 0.023039866 -0.08035969
0.046430368 -0.059460253 -0.03999393 -0.0053315423 -0.062415153 0.041180592 -0.0610804 0.065992765
-0.12981488 -0.09516178 -0.102244854 0.0010331324 0.075957924 -0.01195751 0.03900057 -0.11240792
-0.03627522 0.13586585 0.021498883 0.040416393 -0.112820685 0.0067735557 0.006249263 0.07865577
0.101377875 -0.020270776 -0.12673256 0.016615048 -0.056482017 0.10210662 0.030185176 0.07873028
0.02177555 0.039618492 -0.08241073 0.13542889 -0.07352037 0.123367615 -0.037456207 0.1176092
0.03787788 0.07910789 0.049412757 0.054215778 0.13993031 -0.017882084 0.04287359 -0.037633587
0.0354597 0.08839663 -0.0429824 0.022084972 0.015431388 0.061609317 0.08239427 0.009507925
-0.021667672 0.029636484 -0.075995035 0.017687866 -0.046569362 -0.120266475 0.096883856 0.089552134
-0.08026501 0.11802738 0.10356748 0.081813864 -0.05521606 -0.12111094 0.017003804 0.045560386
0.08984011 0.06835501 -0.048727397 0.09240652 -0.08490696 -0.031024108 0.05010974 -0.016367871
0.11669418 0.056193497 0.07918206 -0.07183836 0.10226791 -0.08703621 0.04874915 -0.085630886
-0.07653509 -0.110544346 -0.10489883 0.09871306 -0.11034876 0.053324133 0.04987614 0.016294347
0.02945419 0.12208118 0.081900984 -0.10240179 0.06534005 -0.074178256 -0.019773623 0.034824032
0.12392446 0.017279876 0.05694455 0.017820269 -0.0350821 -0.027912185 0.10738961 0.09341734
0.09582986 -0.024255345 -0.10005432 0.05063951 0.1287954 0.070210375 -0.057820383 0.06415033
0.08597537 -0.046080966 -0.0341507 -0.0042793145 0.023177868 0.045331683 -0.06354886 0.10842855
0.03018111 0.094030514 -0.022828879 0.019023554 0.032567963 0.0037459263 -0.037995826 -0.024075033
-0.05755234 -0.06766288 -0.10529172 0.048483316 0.08387101 -0.022050854 -0.043446675 0.030607134
0.026177486 0.15172525 -0.06459304 0.10876644 0.009413534 -0.015784783 0.14169243 -0.008373134
-0.0667537 0.033693217 -0.0036212862 0.020407334 0.0086683985 -0.02577554 -0.10780971 -0.09707919
-0.09417088 0.10471672 0.0885937 0.022977918 -0.11781475 0.10828329 -0.0028195912 0.12940636
0.02402969 -0.049731396 -0.07960265 0.15639497 0.15865885 0.019139199 -0.0835163 -0.050321266
0.051924206 0.086495854 -0.03726466 -0.008307547 0.061374325 -0.0040491954 -0.00688654 0.03210684
-0.008721514 -0.043316066 -0.13091342 -0.08424933 0.091235675 -0.07950041 0.039992053 0.05205501

lstm.bias_hh_l0 f4 [256]
00000000: 7959 b73d d7d1 a5bd 1e04 1b3d 5950 d43c
00000010: 9fd7 edbc f7a6 04bd 4091 9e3c b699 063e
00000020: d092 13be 8294 2a3d f0c4 983d d321 493d
00000030: 9c11 05be c890 c3bd c2fb 0d3d cc3b f3bc
00000040: 9a05 9dbc aecd 9c3d 5d03 bc3d a7ad cbbb
00000050: d8a3 90bc efda e63c bb79 99bd 185a bf3c
00000060: f38e fe3d 7131 eb3d 85ac a5bd 3681 7dbd
00000070: 3ca8 6b3d fdbd 9d3d 783c 0e3d 09c0 3fbc
00000080: aa6c bebd 84c7 8b3d 41d0 9e3b 14cc c2bd
00000090: b722 ad3d 1fb6 353d a053 9b3d d39e 883d
000000a0: 18ac 11bc 2818 893c b28c 1dbd 9c06 273e
000000b0: 3a98 f33c 4ba5 843d 787b d8bd 109c 03be
000000c0: 2fa8 f3bd 0296 cfbd 9d03 223c 8696 f43d
000000d0: 6c18 b6bd a44b e13d 513f afbc 3b8a b63c
000000e0: bd15 e0bd e8d5 ca3d 68c1 b3bd a14f dabd
000000f0: d799 ab3d 370e 883d ef70 afbd 05b4 ba3d
00000100: ebc3 a7bc 0e92 9ebd e475 dd3d e735 8f3d
00000110: db95 cdbd 16d3 a93d 5c3f 59bd 6f9c 053e
00000120: 160c 0c3d 0e0b c0bd 0eee 3bbd 7cbd f63d
00000130: f78d 013c 6372 debd 1a9e 03be 7e0b be3d
00000140: 13ce 65bd 8685 a73d 5813 32bd cb5a d3bd
00000150: 4c77 8dbd 055a f53c 9da9 87bd 61b5 d3bd
00000160: bc59 e23d 47df db3d 4b63 bebc b865 f2bd
00000170: fc84 08be 4707 9cbd 29a7 bbbb 39cd d23d
00000180: 78cd 9f3d 93c8 a33d 7244 6cbd 18b2 d53d
00000190: 227d 84bb 33a6 2a3d 42a8 dbbd debc 79bd
000001a0: 9e82 333d 4285 0e3d a639 d23c 49bd 6e3d
000001b0: 4268 f73d 350b e63d 6e11 e23b 7e6c 473d
000001c0: 13ad 79bd 0560 ea3d 08fe 0bbd fa85 9c3d
000001d0: fe99 86bb c807 cb3d 67ba 02be fae4 0cbd
000001e0: 05df e23d b7af cd3d 1d19 bcbd 51dc afbd
000001f0: 5865 0ebc cde4 9b3d 0329 34bd 4069 07be
00000200: 473d dbbd 07a9 f3bc 0ccb ae3d f118 d5bd
00000210: 161f b93c 2600 d3ba ef1f 9339 97be 44bb
00000220: 4f1e 0a3c 01a2 0dbc 3e6c 6c3c df33 eabd
00000230: 8409 3d3c e0bf ee3c 8064 9bbc 581e 993d
00000240: c80c 973d f071 eabd 260d bf3d 3bc2 fb3d
00000250: f716 fe3d 7bce 213d f990 353b ccdd adbb
00000260: 0560 fa3d 67e7 ed3c 3781 9e3d dce7 e4bb
00000270: f8cd 91bd 8e45 c3bd 48f3 a8bd 802c c23d
00000280: b86f 36bd 4c0a a13d cee8 743d a229 d83d
00000290: 9e49 63bd 130d acbd c63a b2bd 89cf 0b3d
000002a0: 7f6d 283c 544e e9bd fc97 70bd 519d 093d
000002b0: 1244 863d cf49 99bd 73af 453d 6127 a7bd
000002c0: 4a87 433d 63aa a43d ecac 063e 78e1 3fbd
000002d0: bbb9 b73d 71bf 8c3d 186f 013e 9c05 903d
000002e0: 85d6 cb3d a5f9 a5bd 841c 2cbc 0458 d43d
000002f0: acec da3d ac80 48bc 996c 1bbd 2c05 893d
00000300: 291c 5dbd 645c 58bc 6409 62bd 7b55 033d
00000310: 00e5 113e f548 4f3b 8d6e 223d 38ed 8b3d
00000320: 1d80 723c 7073 9b3d 3334 673d 7994 613d
00000330: c088 9dbd 0106 a8bd f3a9 b5bd 8164 9e3d
00000340: 6704 cf3d 95a4 e93d 0058 a13d 4731 883d
00000350: 8fb3 bf3c 38af 063e b206 a13c 4af2 1ebd
00000360: ef7e 213e 7172 1d3c e534 0b3d dfa3 eabd
00000370: 0fb4 d0bd fc0f b7bd 0527 df3d 31be 5d3d
00000380: 6a9f 173e 9285 f53d db8e bb3d 0a23 24bd
00000390: e9af 1abd 864d 413c 3cca cc3d 7d41 87bd
000003a0: dc66 e3bc 8636 d03d 7a69 173e dea9 ae3b
000003b0: 2deb 1ebc 4d6e c53c fad3 e63c b809 0f3d
000003c0: 8603 e8bd 0ba4 cdbc c221 fb3d 244e 07bd
000003d0: 7ca1 1cbd 87cf d13d 1c8c a83d f149 113c
000003e0: 882d 8d3d a634 f1bd 7893 493b 6e8f c53d
000003f0: ebab dfbd c264 c63d 0289 e93d 57d8 c73d
0.089526124 -0.080966644 0.037845723 0.025917219 -0.02903348 -0.032385793 0.01935637 0.13144574
-0.14411473 0.041645534 0.07459438 0.049104523 -0.12994999 -0.09549099 0.034663923 -0.0296916
-0.01916771 0.07656418 0.09180329 -0.0062157693 -0.017656252 0.028180568 -0.07493921 0.02335839
0.12429609 0.114840396 -0.08089546 -0.061890803 0.057533488 0.07702253 0.034725636 -0.0117035
-0.0929807 0.06825164 0.004846603 -0.09511581 0.08453887 0.044363137 0.075843096 0.06670918
-0.008891128 0.016735151 -0.038464256 0.16311115 0.029735673 0.0647684 -0.10570425 -0.12852502
-0.11897313 -0.101360336 0.009888557 0.119427726 -0.08891377 0.110007554 -0.021392496 0.02228271
-0.10941646 0.09904081 -0.08777124 -0.10659719 0.08378952 0.06643336 -0.08566462 0.09116367
-0.020479163 -0.077427015 0.108135015 0.06992703 -0.10038348 0.082922146 -0.05303894 0.13047956
0.034191214 -0.093771085 -0.045881324 0.1204786 0.007907382 -0.10861661 -0.1285328 0.09279536
-0.05610473 0.081797644 -0.04347548 -0.10320052 -0.0690752 0.029950151 -0.06624148 -0.1033733
0.11052272 0.10735946 -0.023240706 -0.118358076 -0.1333198 -0.076185755 -0.005726714 0.10293049
0.07802862 0.07997241 -0.057682462 0.10434359 -0.0040432373 0.041662406 -0.10725452 -0.060971133
0.043825738 0.034795053 0.025662255 0.058285985 0.120804325 0.11232606 0.0068990504 0.04868745
-0.060956072 0.114440955 -0.03417781 0.076427415 -0.004107713 0.099135935 -0.1276642 -0.034398057
0.11077694 0.100432806 -0.091844775 -0.08586944 -0.008691154 0.07612 -0.043984424 -0.13223743
-0.10705047 -0.029743684 0.08534822 -0.10405148 0.02259783 -0.0016098067 0.00028061817 -0.0030020827
0.008430078 -0.008644582 0.014430104 -0.11435675 0.011537913 0.029144228 -0.01896882 0.07476491
0.07375485 -0.11447513 0.0932868 0.12292906 0.12406724 0.039503556 0.0027704819 -0.0053059813
0.122253455 0.029041005 0.077394895 -0.0069856476 -0.071193635 -0.09534751 -0.08249527 0.09481144
-0.044540137 0.07863292 0.059792332 0.10554816 -0.05549013 -0.08400931 -0.087026164 0.034133468
0.010280012 -0.11391893 -0.058738694 0.033597294 0.06555952 -0.07484781 0.048263025 -0.08161808
0.047736444 0.08040311 0.13151902 -0.046845883 0.08970972 0.06872452 0.12640035 0.0703232
0.09953026 -0.081042565 -0.0105048455 0.1036835 0.10689673 -0.012237709 -0.037945364 0.066904396
-0.053981934 -0.013205621 -0.055184737 0.032063942 0.14247513 0.003162918 0.03965621 0.06832355
0.014801052 0.07590377 0.056446265 0.055073235 -0.076920986 -0.0820427 -0.08870306 0.07734013
0.101082616 0.11408345 0.07878113 0.06650024 0.02340105 0.13152778 0.019656513 -0.038805284
0.15771078 0.0096098045 0.03398599 -0.11457037 -0.101905935 -0.08938596 0.10896114 0.05413646
0.14806905 0.11988367 0.09158107 -0.04007248 -0.037765417 0.011798268 0.09999511 -0.06604288
-0.027759008 0.101666495 0.1478633 0.0053303083 -0.009699625 0.024100447 0.02817725 0.034921378
-0.11328797 -0.025102636 0.12262298 -0.033033505 -0.03823994 0.10244661 0.08229849 0.008867727
0.0689345 -0.1177762 0.0030758064 0.09646498 -0.109214626 0.09687187 0.11403085 0.097580604

fc.weight f4 [1, 64]
00000000: 747c 90bd 07c2 d63d aab5 ed3c ee17 05be
00000010: 16f7 fd3d 90cc 3fbd 7340 76bd c92b 123e
00000020: a43d 41bd eb02 a1bb 05b1 3c3d 4f9f 8e3d
00000030: 5973 3d3d e677 bd3c da60 17bd 6cbb d1bd
00000040: 8426 d13d 2941 8a3d d498 a73b 561b 13bd
00000050: b516 f93d c605 d9bd 2fb8 883d 7903 cc3d
00000060: 21d9 bf3d bd57 6fbd a53a 16bd db77 88bd
00000070: a9f7 b23d c302 ec3d bd5d dfbd 19f2 363d
00000080: 6659 103e 9f4c 833d 6758 513d 30e3 bcbd
00000090: bb55 debc 71d3 72bd 0766 93bd c132 203e
000000a0: 0d04 8f3d 0fe5 00be e02c 99bc 655a fcbd
000000b0: b4ac ac3d 145c 9dbb 66c6 e63d 8671 83bd
000000c0: 1046 e73d 6a45 d23d c0b7 01bd 61b3 f1bd
000000d0: 829a 083d c865 4cbd 61b2 e53d 3bba eebc
000000e0: 6feb e9bd 93b4 f2bd f43f a63d d11f 593d
000000f0: 1d9a 273d 338e e83c 4a08 f6bd 08e6 c3bd
-0.070549875 0.104862265 0.029017288 -0.1299741 0.124006435 -0.046825945 -0.060120057 0.14274515
-0.047177926 -0.004913678 0.046067256 0.069639795 0.046252582 0.023128461 -0.0369576 -0.10240826
0.102124244 0.067507096 0.005114654 -0.03591474 0.12162534 -0.10596804 0.06675755 0.099616
0.09367586 -0.058433283 -0.03667702 -0.066634856 0.08738644 0.11523964 -0.10906551 0.044664476
0.14096603 0.06411099 0.051109698 -0.0922302 -0.027140489 -0.059283677 -0.071971945 0.15644361
0.069831945 -0.12587379 -0.018698156 -0.12321929 0.08431378 -0.0048022363 0.1126831 -0.06418137
0.1129266 0.10267146 -0.03166938 -0.11801792 0.033350475 -0.049901754 0.11215664 -0.029141536
-0.114218585 -0.11850848 0.08117667 0.053008858 0.04091846 0.028388118 -0.120133 -0.09565359
